…
[INFO|configuration_utils.py:993] 2025-07-25 13:48:28,997 >> loading configuration file generation_config.json from cache at /home/ganesh/.hf_dir3/.hf_cache/transformers/models--microsoft--phi-2/snapshots/ef382358ec9e382308935a992d908de099b64c23/generation_config.json
[INFO|configuration_utils.py:1038] 2025-07-25 13:48:28,998 >> Generate config GenerationConfig {
  "bos_token_id": 50256,
  "eos_token_id": 50256
}

07/25/2025 13:48:30 - INFO - __main__ - Applied LoRA to model.
trainable params: 167,772,160 || all params: 2,947,456,000 || trainable%: 5.6921005775828375
07/25/2025 13:48:30 - INFO - __main__ - trainable model_params: 167772160
PeftModelForCausalLM(
  (base_model): LoraModel(
    (model): PhiForCausalLM(
      (model): PhiModel(
        (embed_tokens): Embedding(51200, 2560)
        (embed_dropout): Dropout(p=0.0, inplace=False)
        (layers): ModuleList(
          (0-31): 32 x PhiDecoderLayer(
            (self_attn): PhiSdpaAttention(
              (q_proj): lora.Linear(
                (base_layer): Linear(in_features=2560, out_features=2560, bias=True)
                (lora_dropout): ModuleDict(
                  (default): Dropout(p=0.05, inplace=False)
                )
                (lora_A): ModuleDict(
                  (default): Linear(in_features=2560, out_features=128, bias=False)
                )
                (lora_B): ModuleDict(
                  (default): Linear(in_features=128, out_features=2560, bias=False)
                )
                (lora_embedding_A): ParameterDict()
                (lora_embedding_B): ParameterDict()
              )
              (k_proj): lora.Linear(
                (base_layer): Linear(in_features=2560, out_features=2560, bias=True)
                (lora_dropout): ModuleDict(
                  (default): Dropout(p=0.05, inplace=False)
                )
                (lora_A): ModuleDict(
                  (default): Linear(in_features=2560, out_features=128, bias=False)
                )
                (lora_B): ModuleDict(
                  (default): Linear(in_features=128, out_features=2560, bias=False)
                )
                (lora_embedding_A): ParameterDict()
                (lora_embedding_B): ParameterDict()
              )
              (v_proj): lora.Linear(
                (base_layer): Linear(in_features=2560, out_features=2560, bias=True)
                (lora_dropout): ModuleDict(
                  (default): Dropout(p=0.05, inplace=False)
                )
                (lora_A): ModuleDict(
                  (default): Linear(in_features=2560, out_features=128, bias=False)
                )
                (lora_B): ModuleDict(
                  (default): Linear(in_features=128, out_features=2560, bias=False)
                )
                (lora_embedding_A): ParameterDict()
                (lora_embedding_B): ParameterDict()
              )
              (dense): Linear(in_features=2560, out_features=2560, bias=True)
              (rotary_emb): PhiRotaryEmbedding()
            )
            (mlp): PhiMLP(
              (activation_fn): NewGELUActivation()
              (fc1): lora.Linear(
                (base_layer): Linear(in_features=2560, out_features=10240, bias=True)
                (lora_dropout): ModuleDict(
                  (default): Dropout(p=0.05, inplace=False)
                )
                (lora_A): ModuleDict(
                  (default): Linear(in_features=2560, out_features=128, bias=False)
                )
                (lora_B): ModuleDict(
                  (default): Linear(in_features=128, out_features=10240, bias=False)
                )
                (lora_embedding_A): ParameterDict()
                (lora_embedding_B): ParameterDict()
              )
              (fc2): lora.Linear(
                (base_layer): Linear(in_features=10240, out_features=2560, bias=True)
                (lora_dropout): ModuleDict(
                  (default): Dropout(p=0.05, inplace=False)
                )
                (lora_A): ModuleDict(
                  (default): Linear(in_features=10240, out_features=128, bias=False)
                )
                (lora_B): ModuleDict(
                  (default): Linear(in_features=128, out_features=2560, bias=False)
                )
                (lora_embedding_A): ParameterDict()
                (lora_embedding_B): ParameterDict()
              )
            )
            (input_layernorm): LayerNorm((2560,), eps=1e-05, elementwise_affine=True)
            (resid_dropout): Dropout(p=0.1, inplace=False)
          )
        )
        (final_layernorm): LayerNorm((2560,), eps=1e-05, elementwise_affine=True)
      )
      (lm_head): Linear(in_features=2560, out_features=51200, bias=True)
    )
  )
)
Using custom data configuration default-9065fb7e379fd893
07/25/2025 13:48:55 - INFO - datasets.builder - Using custom data configuration default-9065fb7e379fd893
Loading Dataset Infos from /home/ganesh/.local/lib/python3.10/site-packages/datasets/packaged_modules/json
07/25/2025 13:48:55 - INFO - datasets.info - Loading Dataset Infos from /home/ganesh/.local/lib/python3.10/site-packages/datasets/packaged_modules/json
…
